chatbot/data.pth (torch, 5482 bytes, 6 tensors)

l1.weight f4 [8, 53]
0	0xbd5c9095	-0.05384882
1	0x3ec1b8a1	0.37836173
2	0x3eef7706	0.46770495
3	0x3f01b0b8	0.50660276
4	0x3f1c2b00	0.6100311
5	0xbed35cc7	-0.4128172
6	0x3f0fd343	0.56181735
7	0xbe71b43e	-0.23603913
8	0x3f56f572	0.8396827
9	0xbbf88cc1	-0.0075851385
10	0x3dbd3285	0.092381515
11	0x3f35eef4	0.7106774
12	0x3f3caf34	0.7370484
13	0x3daeced1	0.08535541
14	0xbdb993d7	-0.09061401
15	0xbdf9e6cf	-0.12202226
16	0xbdadceb9	-0.08486695
17	0xbe456372	-0.19276217
18	0x3f477b4b	0.77922505
19	0xbf530ec2	-0.82444394
20	0x3d2e1ccc	0.04250793
21	0x3eac4079	0.3364294
22	0x3d9707e3	0.07374551
23	0x3f8174a3	1.011372
24	0x3c4a07d3	0.012330967
25	0x3d02b559	0.031911228
26	0x3ea56c1b	0.3230904
27	0xbe0dba17	-0.13840519
28	0xbd8531d1	-0.06503642
29	0x3d883b58	0.06651944
30	0x3f68b92b	0.90907544
31	0xbe9e5bb6	-0.30929345
32	0xbc7f0b7b	-0.015566702
33	0xbdb097e8	-0.08622724
34	0xbead6002	-0.3386231
35	0x3e0fa62e	0.14028236
36	0xbe2be4d5	-0.16786511
37	0xbe73228f	-0.23743652
38	0xbdd6c7cc	-0.10487327
39	0xbcf886d7	-0.030337734
40	0x3f5b5645	0.8567851
41	0x3edd2c2d	0.43197766
42	0x3f0dfd52	0.5546466
43	0xbe4254f9	-0.18977727
44	0x3f016143	0.50539035
45	0xbd45eadd	-0.048319686
46	0x3e48a9d8	0.1959604
47	0x3f158323	0.58403224
48	0x3d99b10f	0.07504474
49	0x3c567cab	0.013091247
50	0xbe30a835	-0.17251666
51	0xbe05f2cd	-0.13080902
52	0xbe33b02e	-0.17547676
53	0x3e6576b2	0.2240856
54	0x3ee304b5	0.4433953
55	0x3f13e768	0.5777497
56	0x3e2ce2b7	0.1688336
57	0x3f06aed7	0.52610534
58	0x3ee1db43	0.44112596
59	0x3f07516e	0.52858627
60	0xbdcf9489	-0.10135753
61	0x3e513708	0.20431149
62	0xbdf04b01	-0.11733056
63	0x3ee90d61	0.4551802
64	0x3e3e9d65	0.18614729
65	0x3f0e6c6a	0.55634177
66	0x3ebcfc75	0.3691136
67	0xbe159468	-0.14607394
68	0xbe861df5	-0.2619473
69	0x3e37cbe6	0.17948875
70	0xbecef24a	-0.40419227
71	0x3ee7547e	0.4518165
72	0xbf35f48e	-0.71076286
73	0x3ee84cfb	0.4537123
74	0x3e10da8f	0.14145873
75	0xbdc8f017	-0.098114185
76	0x3f6ea974	0.93227315
77	0x3eb7e67b	0.3591803
78	0xbe4c183f	-0.19931124
79	0x3e567b73	0.2094553
80	0xbd5f75d0	-0.054555714
81	0xbdd3b047	-0.103363566
82	0x3da81cc3	0.08208611
83	0x3f2e16cc	0.68003535
84	0xbe93761f	-0.28801057
85	0x3f008031	0.50195605
86	0xbe172bee	-0.14762852
87	0x3f252c7b	0.64520997
88	0x3f0a4b5d	0.54021245
89	0xbe03ec9a	-0.12883225
90	0xbe2b267f	-0.16713904
91	0xbe887a7a	-0.26655942
92	0x3ee06511	0.43827108
93	0x3dfb7fa8	0.12280208
94	0x3da02c35	0.07820932
95	0xbd180122	-0.037110455
96	0xbce61e8d	-0.02809074
97	0x3d1730d2	0.036911793
98	0x3e84fb44	0.2597295
99	0x3f2028d1	0.6256228
100	0x3ecd4931	0.40094903
101	0x3eecbdda	0.46238595
102	0xbeadc0e5	-0.3393623
103	0xbe20412e	-0.15649864
104	0xbd6412af	-0.05568188
105	0xbee37f4c	-0.44433057
106	0x3e9b676b	0.3035234
107	0xbd7111ef	-0.058854993
108	0xbe11a0b2	-0.14221457
109	0xbd65f37c	-0.056140408
110	0xbe964b71	-0.29354432
111	0x3f47c83b	0.780399
112	0xbe6817c0	-0.2266531
113	0x3f2112d3	0.6291935
114	0xbd91a41f	-0.07111382
115	0x3ef03551	0.46915677
116	0x3edd23f0	0.4319148
117	0xbda42680	-0.08015156
118	0xbe93d9b9	-0.28877047
119	0x3d63c874	0.05561109
120	0x3f2d16fe	0.6761321
121	0x3e7f4891	0.24930026
122	0x3e97b37c	0.29629123
123	0x3f123b94	0.5712216
124	0xbf08fb46	-0.5350841
125	0x3f20a3bf	0.62749857
126	0x3df1fb75	0.1181554
127	0xbe899e82	-0.26878744
128	0x3e868109	0.2627032
129	0xbf03c46e	-0.514716
130	0x3d9535b0	0.07285631
131	0x3e784786	0.24246034
132	0xbe7bcd14	-0.2458995
133	0x3deb29b6	0.11482565
134	0x3ed2166d	0.41032735
135	0x3e84aa9b	0.25911412
136	0xbf03c2d5	-0.51469165
137	0x3f5c6276	0.8608774
138	0x3d38b1de	0.045091502
139	0x3e845e7b	0.25853333
140	0x3eb3a3f0	0.35086012
141	0x3c855a8a	0.016278524
142	0x3ed3384b	0.41253886
143	0x3e060289	0.13086905
144	0x3e930314	0.28713286
145	0x3e8b0572	0.27152592
146	0x3d1caf4f	0.038253125
147	0x3c4fec3e	0.012690602
148	0xbcb95194	-0.022621907
149	0x3ee2673b	0.44219384
150	0x3d6f8daf	0.05848473
151	0x3eb4839e	0.35256666
152	0x3ca789ea	0.020451505
153	0xbda1dedb	-0.079038344
154	0x3e8cbdfb	0.27488694
155	0x3ed8c058	0.42334247
156	0x3ec80c73	0.39071998
157	0x3ef78cfb	0.48349747
158	0x3f13e5d2	0.5777255
159	0xbd9b6c7c	-0.07589051
160	0x3f1e5a50	0.61856556
161	0xbe82df80	-0.25561142
162	0x3ebae98f	0.36506316
163	0xbe0fed89	-0.14055456
164	0xbe875bae	-0.26437134
165	0xbec59e95	-0.3859755
166	0xbd2a760b	-0.04161648
167	0x3eedfdf6	0.4648282
168	0xbdf330af	-0.1187452
169	0xbc216aa1	-0.0098520825
170	0x3eb873b9	0.3602579
171	0xbe84b6d3	-0.25920734
172	0xbe8cac48	-0.2747519
173	0xbdce6b5c	-0.10079071
174	0xbcbf4f57	-0.023353262
175	0x3f0a7e7f	0.5409927
176	0x3f30730d	0.68925554
177	0xbe4501cf	-0.19238971
178	0x3f8b6e50	1.089304
179	0x3cc6078e	0.024173524
180	0x3eeea553	0.46610507
181	0xbd476a6e	-0.048685484
182	0xbf11fa2d	-0.5702236
183	0x3d03fe9c	0.032225236
184	0x3db28cc1	0.08718253
185	0x3ed6f139	0.41980913
186	0x3b16a71d	0.002298779
187	0xbe44a031	-0.19201733
188	0xbb81fc40	-0.003966838
189	0xbf159a8e	-0.58438957
190	0xbe70e48a	-0.2352468
191	0xbe6494ae	-0.22322342
192	0xbe7892f2	-0.24274805
193	0xbd8eb003	-0.06967165
194	0xbe93bf03	-0.28856668
195	0x3d3832b5	0.044970233
196	0xbddb6898	-0.10713309
197	0xbe0499ac	-0.12949246
198	0xbbf35f41	-0.0074271266
199	0x3eeb623c	0.45973384
200	0x3ec44a58	0.3833797
201	0x3f06db81	0.52678686
202	0x3f227df0	0.63473415
203	0x3ef76e9e	0.48326582
204	0xbe3937cc	-0.18087691
205	0xbebbbfda	-0.3666981
206	0xbe4e7841	-0.2016306
207	0xbde37d7d	-0.11107919
208	0xbe23becc	-0.15990752
209	0xbea8aa48	-0.32942414
210	0xbdcd74d8	-0.10032052
211	0x3f30fcac	0.69135547
212	0x3e4a38ef	0.19748281
213	0xbf7394c0	-0.9514885
214	0x3eb9977d	0.3624839
215	0x3eb21bc9	0.34786823
216	0x3ef54de1	0.4791098
217	0x3f5d9781	0.865593
218	0x3f032b45	0.512379
219	0x3f1aec6c	0.60517
220	0x3f0780c6	0.5293087
221	0x3ea68e1d	0.325303
222	0x3e8a1a33	0.26973113
223	0x3eb4468f	0.35210082
224	0x3f0be52f	0.5464658
225	0x3eae8843	0.34088334
226	0x3f0d0c6e	0.5509709
227	0x3e9086b2	0.28227764
228	0x3eb31c36	0.3498246
229	0x3eca3ff5	0.3950192
230	0x3f173d47	0.59077877
231	0x3f1e11af	0.61745733
232	0x3e225132	0.15851286
233	0xbe895d76	-0.26829118
234	0xbc56a7d6	-0.013101539
235	0x3f6df417	0.92950577
236	0x3ea88f73	0.32921943
237	0x3e828d5f	0.25498483
238	0xbef40112	-0.47657067
239	0x3d08309a	0.033249475
240	0xbcc183d7	-0.023622436
241	0x3d9eb996	0.077502415
242	0x3f38c872	0.72180855
243	0x3f2c9b97	0.6742491
244	0x3e5a0873	0.21292286
245	0xbd57d721	-0.052695397
246	0x3f3f5570	0.7473974
247	0x3e88469f	0.2661638
248	0x3eb550e3	0.35413274
249	0xbddcbcf9	-0.10778231
250	0xbdc8b59c	-0.09800264
251	0x3e02917e	0.12750813
252	0x3eda72b1	0.42665628
253	0x3ee2c801	0.44293216
254	0x3edc48bf	0.4302425
255	0x3e39b32d	0.18134756

l1.bias f4 [8]
0	0x3f718ae4	0.94352555
1	0x3f35f23c	0.71072745
2	0x3f03c1d2	0.5146762
3	0x3f3361f7	0.7007136
4	0x3f7cbc20	0.98724556
5	0x3e937f26	0.28807944
6	0x3f1d3ba4	0.6141913
7	0x3f25e6aa	0.6480509

l2.weight f4 [8, 8]
0	0xbf8acadc	-1.0843158
1	0xbf86e1cc	-1.0537658
2	0x3f4ea503	0.8072054
3	0x3f64afef	0.89330953
4	0x3fa5bd6c	1.2948432
5	0xbf2b295a	-0.6685997
6	0x3f937b98	1.1522093
7	0xbf21d80c	-0.63220286
8	0xbe826bfa	-0.25473005
9	0x3eb91433	0.36148223
10	0x3f3b86d4	0.73252606
11	0x3f54a262	0.83060277
12	0xbdd0a0bf	-0.1018691
13	0xbf9a5a00	-1.2058716
14	0x3f71c32c	0.94438434
15	0x3f6733ad	0.90313226
16	0xbf329a0e	-0.6976632
17	0x3eba6d9a	0.36411744
18	0x3f1bfc82	0.6093217
19	0xbf5e6924	-0.8687918
20	0x3f1a1bb8	0.60198545
21	0x3f8c6e13	1.0971092
22	0x3e20177f	0.15633963
23	0x3fa3aaf6	1.2786548
24	0xbe1c809a	-0.15283433
25	0xbc794151	-0.015213327
26	0xbe69e7a3	-0.22842269
27	0xbe985b7b	-0.29757294
28	0x3e47363e	0.19454286
29	0xbe84d21d	-0.25941554
30	0xbde556cf	-0.11198198
31	0xbeb4d01b	-0.35315022
32	0x3e945354	0.28969824
33	0xbe9d9c19	-0.30783156
34	0x3e9c2a2a	0.3050092
35	0x3ee04b54	0.4380747
36	0x3d819f25	0.063291825
37	0x3f86844e	1.0509126
38	0xbf651597	-0.8948607
39	0x3ecfb8c5	0.40570655
40	0x3e71bbc1	0.23606779
41	0xbe3b0a63	-0.18265681
42	0x3d259598	0.040425867
43	0xbe4a3169	-0.19745411
44	0xbe222479	-0.15834226
45	0xb8f9f656	-0.00011919129
46	0x3bf8f0b4	0.0075970534
47	0xbcdf5688	-0.027262941
48	0x3f88993a	1.0671761
49	0xbcb23317	-0.021752877
50	0xbf3dffc8	-0.74218416
51	0x3f432db0	0.7624159
52	0x3d200f6b	0.039077204
53	0xbefe30bd	-0.4964656
54	0x3f16df39	0.5893436
55	0x3f7b3d9e	0.98140895
56	0x3f9be4e7	1.217923
57	0x3f9759a7	1.1824235
58	0xbe7db94e	-0.2477772
59	0xbf31233c	-0.6919439
60	0x3f9c5361	1.2212945
61	0xbf0684ea	-0.5254656
62	0xbf4ef573	-0.80843276
63	0xbf5541ed	-0.8330372

l2.bias f4 [8]
0	0x3f092bf1	0.53582674
1	0xbd079d34	-0.033108905
2	0xbe8eb146	-0.27869624
3	0xbe2c5138	-0.16827857
4	0xbe5debe0	-0.2167201
5	0xbe5e9041	-0.21734716
6	0x3df7f307	0.12106901
7	0x3f18896d	0.59584695

l3.weight f4 [7, 8]
0	0xbe24fea5	-0.16112764
1	0x3d86b22b	0.065769516
2	0xbe6d9756	-0.23202261
3	0x3e4d1e9f	0.20031212
4	0xbfa67bcc	-1.300653
5	0xbe58ad09	-0.21159758
6	0xbfc6a156	-1.5517986
7	0x3ef59926	0.47968405
8	0x3ea5d62b	0.3238996
9	0x3be7200e	0.0070533818
10	0x3de813ef	0.11331927
11	0x3dc89004	0.09793094
12	0xbf64b356	-0.89336145
13	0x3e38f9f2	0.18064097
14	0xbf5e8be1	-0.8693219
15	0xbf790fb8	-0.9728961
16	0xbf6f3938	-0.93446684
17	0xbf39a0eb	-0.72511166
18	0xbf53feaf	-0.8281049
19	0x3bfaa1cf	0.0076486836
20	0x3f407ac2	0.75187314
21	0xbe9c39c7	-0.3051283
22	0x3ede5488	0.43423867
23	0xbd7ce1dd	-0.061738838
24	0xbed70873	-0.41998634
25	0x3f0319bb	0.51211137
26	0xbf346fbe	-0.70483005
27	0xbdbc7fa4	-0.09204033
28	0xbfb242c7	-1.3926629
29	0x3d8ef110	0.06979573
30	0x3f6760fb	0.90382355
31	0xbf96254a	-1.173013
32	0xbf8406fb	-1.031463
33	0xbfc8fb7e	-1.5701749
34	0xbfa1e3ea	-1.2647679
35	0x3dc99277	0.09842389
36	0xbfbdca75	-1.482741
37	0xbe3f971d	-0.18709989
38	0x3e60d9e0	0.21958113
39	0x3f6f3331	0.93437487
40	0xbf8e6928	-1.1125841
41	0xbebc3714	-0.3676077
42	0x3ec103cb	0.37698206
43	0xbe74c2bb	-0.23902409
44	0x3ef0729b	0.46962437
45	0xbe997fa4	-0.29980195
46	0xbf97efe3	-1.1870083
47	0xbf7f9ac1	-0.9984551
48	0x3f81feb8	1.0155859
49	0x3e5d9260	0.21637869
50	0xbfc94c14	-1.5726342
51	0xbeb0ba7a	-0.3451727
52	0xbd55b70b	-0.052176517
53	0x3ea9778d	0.33099023
54	0xbe388eb4	-0.18023187
55	0xbf668691	-0.9004908

l3.bias f4 [7]
0	0xbeb434f2	-0.35196644
1	0xbe4fba82	-0.20285991
2	0xbf0ca663	-0.54941386
3	0xbe54c183	-0.20776944
4	0x3e3e4979	0.18582715
5	0x3eb124eb	0.3459848
6	0xbd014182	-0.031556614
